univ/6week/mlp_weight.pkl (torch, 943787 bytes, 6 tensors)

weight f4 [256, 784]
0	0xbc0d0884	-0.008607987
1	0x3b412c90	0.0029476024
2	0xbcc8b615	-0.024500886
3	0xbca51d2a	-0.020155508
4	0xbc0c8020	-0.008575469
5	0xbc628cfc	-0.013827559
6	0xbcee0728	-0.029056147
7	0xbd00139d	-0.031268705
8	0x3ca8bb30	0.02059707
9	0x3cc41008	0.023933426
10	0x3cadedae	0.021231499
11	0xbd08703e	-0.033310167
12	0x3bc8db4f	0.0061296592
13	0x3c88a7b7	0.016681535
14	0xbd044b9a	-0.03229866
15	0x3c9f9c22	0.01948363
16	0x3a7c1800	0.00096166134
17	0x3c35d65c	0.011098471
18	0x3c004784	0.007829551
19	0xbbcbb294	-0.0062163565
20	0xbc2c49b2	-0.010515617
21	0xbc908147	-0.01763977
22	0xbb209d90	-0.0024507977
23	0xbbd5fa80	-0.006530106
24	0x398de780	0.00027066097
25	0xbc6aa272	-0.014320957
26	0x3cb2d6d2	0.02183095
27	0x3d0591b1	0.032609645
28	0x3cea0a16	0.028569262
29	0xbab4ae60	-0.0013784878
30	0x3d043475	0.03227659
31	0xbbf4e280	-0.00747329
32	0x3d10c941	0.03534818
33	0x3cc609d4	0.024174608
34	0xbd0a0456	-0.03369554
35	0x3ce1d2e2	0.027566377
36	0x3c38cb32	0.011278914
37	0x3cd25fec	0.025680505
38	0xbd017855	-0.0316089
39	0x3d015971	0.03157944
40	0x3c93b6df	0.018031536
41	0x3c890481	0.01672578
42	0xb9c1ae27	-0.00036941582
43	0x3d0cec73	0.034405183
44	0xbc70cb46	-0.014696902
45	0x3cbff0b6	0.02343021
46	0x3c9e203d	0.019302482
47	0xbc6da752	-0.014505224
48	0xbca5dbe7	-0.02024646
49	0xbd06f971	-0.03295273
50	0xbc1abce6	-0.009444451
51	0x3b80006a	0.0039062994
52	0xbcccd19a	-0.02500229
53	0x3cf6fb9a	0.03014927
54	0x3ceb69a6	0.0287369
55	0x3ce0db4a	0.027448315
56	0x3cb50182	0.022095446
57	0xba6e8980	-0.00090994686
58	0x3c577f36	0.013152888
59	0x3cb95902	0.02262545
60	0x3d115dd6	0.03548988
61	0xbcca0f8e	-0.02466562
62	0xbc40484e	-0.011735989
63	0xbd0768f2	-0.033059068
64	0xbc5e10bd	-0.013553795
65	0xbcbc929b	-0.023019126
66	0x3b231f6a	0.002489055
67	0x3d134d78	0.03596255
68	0xbcc2059f	-0.023684321
69	0x3af953e7	0.0019022197
70	0xbc1ffd65	-0.009765004
71	0x3cb7474f	0.02237287
72	0xbbdf9d7a	-0.0068241926
73	0x3c91f22c	0.017815672
74	0x3d28cdca	0.04121188
75	0x3ccdd5f3	0.025126433
76	0x3b014bf1	0.0019729102
77	0x3d072429	0.03299347
78	0x3bc9d95b	0.006159944
79	0xbca1aa20	-0.019734442
80	0x3c0d7524	0.0086338855
81	0xbcb613f9	-0.02222632
82	0x3bf6a3f0	0.007526867
83	0xbc8ddc2a	-0.017316896
84	0xbc7a1a58	-0.01526507
85	0x3ca721ba	0.020401824
86	0xbceecbd6	-0.02914993
87	0x3c314fa0	0.010822207
88	0xbc86c7ab	-0.016452631
89	0x3b08bef8	0.002086578
90	0x3ca5018b	0.020142337
91	0x3c3ff5f8	0.011716358
92	0xbc1b6da6	-0.009486591
93	0xbc5de51a	-0.013543392
94	0x3c12141f	0.00891593
95	0xbc72a559	-0.01480993
96	0x3d18f212	0.03734023
97	0xbc848adf	-0.0161795
98	0x3cd4ebed	0.025991404
99	0x3d1534b2	0.036427207
100	0x3c7692e3	0.015049669
101	0xbc99ce43	-0.018775111
102	0x3d0f88ee	0.035042696
103	0x3c4ad591	0.01238002
104	0x3c007840	0.00784117
105	0x3b8a448d	0.0042195977
106	0x3c1115f8	0.008855335
107	0x3d034cc8	0.032055646
108	0x3b9164f1	0.004437082
109	0xbcc294c6	-0.023752581
110	0x3ca11f01	0.019668104
111	0xbcd1e548	-0.025622025
112	0xbd01b22f	-0.03166407
113	0x3c88bfc9	0.016693013
114	0x39d60f41	0.00040828626
115	0x3c5dbb50	0.013533428
116	0x3cc36488	0.023851648
117	0xbbd3d4d6	-0.006464581
118	0x3c0f2061	0.008735747
119	0x3a8d88c5	0.0010798207
120	0x3ca33072	0.019920561
121	0x3d55ca8d	0.05219512
122	0x3b91a428	0.004444618
123	0x3c166e88	0.009181626
124	0x3cfcc56f	0.030855862
125	0x3cc8120a	0.024422664
126	0xbc0b4c80	-0.008502126
127	0x3c14b102	0.009075405
128	0x3cd30fd7	0.025764389
129	0x3cb0fcd0	0.021604925
130	0xbca46a55	-0.020070234
131	0xbbd29792	-0.00642676
132	0xbb6ae498	-0.003584182
133	0xbbfff003	-0.007810594
134	0x3a75c92d	0.0009375986
135	0xbc438219	-0.011932873
136	0xbc7b15e9	-0.015325048
137	0x3c092bba	0.008372242
138	0xbc470e71	-0.012149439
139	0x3c42d529	0.011891642
140	0x3d11b041	0.03556848
141	0x3b718310	0.00368518
142	0xbce32806	-0.027729046
143	0x3c18d630	0.00932841
144	0x3cc07888	0.023494974
145	0xbbde41a2	-0.0067827264
146	0x3d43f9ac	0.047845528
147	0x3d5ed5bf	0.054403063
148	0x3cdd06c8	0.026980773
149	0x3d0f167d	0.034933556
150	0x3d24266d	0.04007571
151	0x3cf61ead	0.030043924
152	0xbd0c844c	-0.034305856
153	0x3ca0b614	0.019618072
154	0xbd167e05	-0.036741275
155	0xbaef4076	-0.0018253464
156	0x3c80f8ed	0.015743697
157	0x3c631817	0.013860724
158	0xbbfa25a7	-0.007633883
159	0x3d5882ef	0.052859243
160	0xbc8cd8f0	-0.017193288
161	0x3c9fbabd	0.019498223
162	0x3c744433	0.014908838
163	0xbc43d22d	-0.011951965
164	0xbcff7c6f	-0.031187264
165	0xbc96dbee	-0.018415418
166	0xbbd935d9	-0.0066287336
167	0x3a8769f0	0.0010331254
168	0x39995880	0.00029248372
169	0xbcb4f462	-0.022089187
170	0xbd0a5459	-0.033771846
171	0x3c701af5	0.014654865
172	0xbc3e3fc3	-0.011611882
173	0x3d0d0b1e	0.03443443
174	0x3d248377	0.040164437
175	0x3d063491	0.032764975
176	0x3d578b8e	0.052623324
177	0x3d2e2d46	0.042523645
178	0x3c08a6c6	0.008340543
179	0xbd0a153c	-0.033711657
180	0xbd5c1c0d	-0.05373769
181	0xbcb23b8c	-0.02175691
182	0xbd1fcd48	-0.03901413
183	0xbbb6e76a	-0.005581786
184	0xbd58feb4	-0.05297728
185	0xbcbfafb0	-0.023399204
186	0xbd25d2b6	-0.040484153
187	0x3b9e6e1d	0.004834904
188	0xb815f8d2	-3.57561e-05
189	0xbcf101d1	-0.029419811
190	0x3d29b16e	0.041428976
191	0x3bba8848	0.0056925155
192	0xbce668cc	-0.028126143
193	0xbbb77c3d	-0.005599527
194	0xbc8e19e8	-0.017346337
195	0xbb25c37a	-0.0025293515
196	0xbceb9155	-0.028755823
197	0x3ca21cee	0.019789185
198	0xbc8bea9e	-0.017079648
199	0x3b51352a	0.0031922557
200	0x3d1712b2	0.036883064
201	0x3d02ed7c	0.031964764
202	0x3c76e15d	0.015068379
203	0xbc77580f	-0.015096678
204	0xbc7fa1a7	-0.015602506
205	0xbcecfec8	-0.028930083
206	0xbcb800ab	-0.022461256
207	0xbc9ce8c3	-0.019153958
208	0xbd30ae23	-0.04313482
209	0xbd0f478a	-0.034980334
210	0xbcf84ae2	-0.030309144
211	0xbd3797df	-0.04482257
212	0xbd96fc78	-0.07372373
213	0xbdaca531	-0.08429945
214	0xbcd4da69	-0.025983052
215	0xbd395bd0	-0.045253575
216	0xbd20cd70	-0.03925842
217	0xbc8a919c	-0.016915135
218	0x3cf53784	0.029933698
219	0xbd205d10	-0.03915125
220	0xbd048033	-0.032348823
221	0xbca9b319	-0.020715283
222	0x3d01b387	0.03166535
223	0x3c90b314	0.017663516
224	0xbcdcfca2	-0.026975933
225	0x3cc7bb08	0.024381176
226	0xbd04ea5d	-0.03245007
227	0x3c0c7467	0.008572674
228	0xbc0c8209	-0.008575925
229	0xbcc09b12	-0.023511443
230	0xbcce5764	-0.025188155
231	0xbc58c52e	-0.013230605
232	0x3c7bfba3	0.015379819
233	0xbc0fc453	-0.008774835
234	0xbca3d848	-0.020000592
235	0xbc876652	-0.016528282
236	0xbd471969	-0.048608217
237	0xbc6c2249	-0.014412471
238	0xbcdd5511	-0.027018102
239	0xbd9ba8bd	-0.07600544
240	0xbd689787	-0.056785133
241	0xbba7082d	-0.00509741
242	0xbd7a5319	-0.061114404
243	0xbd25425d	-0.040346492
244	0xbc6fd263	-0.014637562
245	0x3a89a980	0.0010502785
246	0xbca3cacc	-0.019994162
247	0xbcdeb4d3	-0.027185833
248	0xbcb742de	-0.022370752
249	0xbc7d0955	-0.015444119
250	0xbc39d3c2	-0.011341991
251	0x3cd58ea4	0.026068993
252	0x3cf73631	0.030177208
253	0x3b8a3217	0.004217397
254	0xbcafba31	-0.021451088
255	0xbc953fd1	-0.018218907

bias f4 [256]
0	0xbc1f6585	-0.009728794
1	0x3c58f892	0.0132428575
2	0x3d1fabcd	0.0389822
3	0xbc06ae08	-0.008220203
4	0x39b2971b	0.00034063388
5	0x3d2721b6	0.040803634
6	0x3cd2fe98	0.025756165
7	0xbcc20522	-0.023684088
8	0x3ca468a6	0.020069432
9	0x3cc517d4	0.024059214
10	0x3cfef21c	0.031121306
11	0xbd0abbff	-0.033870693
12	0x3ccb4941	0.024815204
13	0xbcbc2d24	-0.022970743
14	0xbaeda051	-0.0018129443
15	0xbcd36f54	-0.025809921
16	0xba4d93bf	-0.0007842145
17	0x3c8e666b	0.017382821
18	0xbccd2c59	-0.02504556
19	0x3d089607	0.033346202
20	0xbc023756	-0.007947763
21	0x3c7f5026	0.015583074
22	0xbc8dec46	-0.017324578
23	0xbb9d5a9f	-0.0048020626
24	0x3d066123	0.03280748
25	0x3ceb8313	0.028749024
26	0xbd0b4bb5	-0.034007747
27	0xbd246879	-0.040138695
28	0xbce5d7c0	-0.02805698
29	0xbce42d3f	-0.027853606
30	0xbbcccfa9	-0.006250341
31	0xbc810188	-0.0157478
32	0xbc84e47e	-0.016222235
33	0x3cfb272c	0.030658327
34	0x3bac4849	0.0052576405
35	0x3ce0985d	0.027416402
36	0x3c34c4d7	0.011033258
37	0x3ce655ad	0.028117025
38	0x3c44900d	0.011997235
39	0x3cf8e791	0.030383857
40	0xbd03bb6e	-0.03216117
41	0x3caf988b	0.021435043
42	0x3c2869ec	0.01027916
43	0x3bf988bb	0.0076151765
44	0x3d14f63a	0.036367632
45	0xbc901eea	-0.017592866
46	0x3cab6ce3	0.020925945
47	0xbc131ae8	-0.008978583
48	0x3cc1f01b	0.023674062
49	0x3c854944	0.016270287
50	0x3cc2e438	0.023790464
51	0xbab0da6f	-0.0013492833
52	0x3ce57e88	0.028014436
53	0xbc0fb76c	-0.0087717585
54	0x3c49f20b	0.012325774
55	0x3caed68f	0.021342544
56	0x3c3d1c5b	0.011542405
57	0xbc135f69	-0.0089949155
58	0x3d0ca9e5	0.03434171
59	0x3bbaf757	0.0057057547
60	0x3cc0d0ec	0.023537122
61	0xbc57975a	-0.013158644
62	0x3c310bdc	0.01080605
63	0x3c63da1b	0.013906981
64	0x3d12f56e	0.03587859
65	0x3d0a2701	0.033728603
66	0xbc9c92af	-0.019112913
67	0xbce99833	-0.028514957
68	0x3cb7375f	0.02236527
69	0x3c9ca701	0.019122602
70	0xbc8b81c7	-0.017029656
71	0x3cd07b41	0.025449397
72	0x3c80f0ac	0.015739761
73	0xbd07f294	-0.033190325
74	0x3ca5a356	0.020219486
75	0xbbee7dab	-0.0072781644
76	0x39ffeea8	0.00048815203
77	0x3d278950	0.040902436
78	0xbc79c43e	-0.015244542
79	0xbb80c6f6	-0.003929968
80	0x3ca000c4	0.019531615
81	0x3cc10c24	0.02356536
82	0xbcca3b5e	-0.024686512
83	0x3cbef132	0.02330837
84	0x3a73abe3	0.00092953275
85	0x3c9bf535	0.019037822
86	0x3be1c074	0.0068893973
87	0xbcd4d026	-0.02597816
88	0x3c975d6c	0.018477164
89	0xbb18887e	-0.0023274715
90	0xbce216f5	-0.027598837
91	0xbcc69274	-0.024239756
92	0xbcfda857	-0.03096406
93	0xbc3a190e	-0.011358513
94	0xbd17704e	-0.036972336
95	0x3c704e6d	0.014667136
96	0xbc339997	-0.010961912
97	0xbc88a62a	-0.016680796
98	0x3bbc119e	0.005739405
99	0x3b09f347	0.0021049546
100	0x3cd705fb	0.026247969
101	0xbcc481e9	-0.023987727
102	0x3d017650	0.031606972
103	0xbc1ec091	-0.009689466
104	0xbc8c528a	-0.017129201
105	0x3cd49532	0.025950048
106	0x3b43c40b	0.002987149
107	0xbcf0c5c5	-0.029391179
108	0x3cadf945	0.021237025
109	0x3cd53836	0.02602778
110	0x3b29d724	0.0025915587
111	0x3c231c50	0.009955481
112	0x3b7057d1	0.0036673436
113	0x3c257b80	0.0101002455
114	0x3cd54e51	0.02603832
115	0x3ccef55d	0.025263483
116	0x3d027c01	0.03185654
117	0x3d1b33f2	0.037891336
118	0x3cf09d6c	0.02937194
119	0xbc77b684	-0.015119199
120	0xbc6fa9d2	-0.014627891
121	0x3c2e3e06	0.010634905
122	0xbcb828b9	-0.022480356
123	0xbc5907e7	-0.013246513
124	0x3c9bb7f6	0.019008618
125	0xbceb104b	-0.028694293
126	0xbbc76e58	-0.006086152
127	0x3d164b84	0.03669311
128	0x3c701382	0.0146530885
129	0x3ca1e663	0.019763177
130	0x3b7d2215	0.003862505
131	0x3cbe63c0	0.023240924
132	0x3cb341f9	0.021882044
133	0xbd35926d	-0.044329096
134	0xbd30d12c	-0.04316823
135	0x3cd7530b	0.026284715
136	0xbc92bca3	-0.017912215
137	0xbd0d394f	-0.03447848
138	0xbc4c8027	-0.012481726
139	0xbcef0045	-0.029174933
140	0x3c3aad69	0.011393883
141	0xbcc04121	-0.023468556
142	0x3a255a34	0.0006307692
143	0xbd1a5753	-0.037680935
144	0x3cc66c54	0.024221577
145	0x3c8506d3	0.016238606
146	0xbb4dfae0	-0.003143005
147	0x3c42fe4c	0.011901449
148	0x3ca45071	0.020057889
149	0xbc4b5083	-0.012409332
150	0x3d225b78	0.039638013
151	0x3c401366	0.011723375
152	0xbc3d1365	-0.011540269
153	0xbcdf80fd	-0.027283186
154	0xbcf902a9	-0.030396776
155	0xbd35dfe2	-0.044402964
156	0x3ccbaefb	0.02486371
157	0xbb895f00	-0.004192233
158	0xbcc5f19b	-0.024163058
159	0x3cd3a36c	0.025834762
160	0x3ce0304a	0.027366776
161	0x3d175da2	0.03695453
162	0x3d00888b	0.031380218
163	0xbd094c29	-0.033519898
164	0x3c2b8cba	0.010470564
165	0xbc114b76	-0.008868089
166	0xbcf48710	-0.02984956
167	0xbbb3d475	-0.0054879733
168	0x3d0ebc34	0.034847453
169	0xbc68b590	-0.014203444
170	0x3d10a143	0.03531004
171	0x3cb7fd52	0.02245966
172	0x3ccec213	0.025239026
173	0x3bfad9bd	0.007655351
174	0xbb882af8	-0.004155513
175	0xbb4d9d09	-0.0031374118
176	0xbd163de0	-0.036680102
177	0xbb489bb1	-0.0030610377
178	0xbb3e3830	-0.002902519
179	0xbcbbcb89	-0.022924202
180	0x3c39ff4a	0.01135237
181	0xbd225911	-0.03963572
182	0x3d1a1ebd	0.03762697
183	0x3bdcbccd	0.006736374
184	0xbc08c1b9	-0.008346968
185	0x3c64bcfd	0.013961074
186	0x3b76af8e	0.003764126
187	0xbb9a5279	-0.0047095385
188	0x3d2a0fe5	0.041519064
189	0xbca05dff	-0.01957607
190	0xbc842a3e	-0.016133424
191	0x3ce1469c	0.02749949
192	0xbce1929f	-0.027535735
193	0x3bdd4e96	0.006753753
194	0x3c818f14	0.015815295
195	0xbd0ca1a1	-0.03433383
196	0x3cdfa1bb	0.027298799
197	0xbce26483	-0.027635818
198	0x3d292557	0.041295376
199	0xbc8f45cd	-0.017489338
200	0xbc6121c6	-0.013740962
201	0x3c379071	0.011203871
202	0xbb1d4608	-0.002399804
203	0x3cc230cb	0.023704907
204	0xbd1b8837	-0.0379717
205	0x3bf7d553	0.007563272
206	0x3cd67f22	0.026183669
207	0x3c892d01	0.016745092
208	0x3cf1d5f2	0.029520962
209	0x3cc89a5b	0.024487665
210	0xbc855d13	-0.016279733
211	0x3c53e4bb	0.012932952
212	0xbcb40c31	-0.02197847
213	0x3c27acf3	0.010234105
214	0xbb6396f9	-0.0034727438
215	0xbba099c7	-0.004901144
216	0x3b36559c	0.0027822023
217	0xbcffce79	-0.031226384
218	0xbcf1e46a	-0.029527862
219	0x3c903526	0.017603468
220	0x3c6729fd	0.014109132
221	0xbca15619	-0.019694375
222	0xbcf2e455	-0.029649893
223	0x3c056ca6	0.00814358
224	0x3cfa7e9f	0.030577956
225	0xbb5c1aa9	-0.0033585227
226	0x3bd213a6	0.0064110337
227	0xbc6a0b1c	-0.014284875
228	0x3bf52d28	0.0074821897
229	0xbcf2f96f	-0.029659955
230	0xbd196583	-0.037450325
231	0x3cd100ad	0.025513018
232	0x3d16b50e	0.03679376
233	0xbc27f035	-0.010250141
234	0x3cc7e7d1	0.02440253
235	0xbbed3951	-0.0072394987
236	0xb7e5d49e	-2.7397935e-05
237	0x3c7cf856	0.015440067
238	0xbbef24e4	-0.007298099
239	0xbceebc17	-0.029142423
240	0x3cd2bc5d	0.025724584
241	0x3ca0b2fe	0.0196166
242	0xbc91e189	-0.017807739
243	0xbc627aec	-0.013823252
244	0xbc996b79	-0.018728005
245	0x3ce7df5d	0.02830475
246	0x3c210761	0.009828419
247	0xbca8d17c	-0.020607702
248	0x3c2b2429	0.010445633
249	0xbbe2a38e	-0.00691647
250	0xbd1baafb	-0.038004857
251	0x3c919170	0.017769545
252	0x3c43b3d9	0.0119447345
253	0xbc7d1d8c	-0.015448939
254	0x3cbf5b58	0.023358986
255	0x3c439556	0.01193746

weight f4 [128, 256]
0	0x3df0f33c	0.11765143
1	0xbd62ad34	-0.05534096
2	0xbd446672	-0.047949262
3	0x3d0eaae1	0.03483093
4	0x3cd6cb20	0.026219904
5	0xbd1cfd4a	-0.038327493
6	0xbdb2d467	-0.08731919
7	0xbd6e0dfe	-0.058118813
8	0x3da30871	0.079605944
9	0x3d312b00	0.0432539
10	0xbd41e476	-0.047337018
11	0x3d176dc9	0.036969934
12	0x39b061fe	0.00033642346
13	0xbd099554	-0.033589676
14	0x3d538c5c	0.05164753
15	0x3d39962c	0.04530923
16	0x3ca9fd34	0.02075062
17	0x3da322ad	0.07965598
18	0x3cae8299	0.021302508
19	0x3c2dd3fa	0.010609621
20	0xbbd4224f	-0.0064738165
21	0x3d54a650	0.05191642
22	0xbd6723a8	-0.05643049
23	0xbd9cd39c	-0.07657549
24	0xbdc58ccd	-0.09645996
25	0xbce77cc7	-0.02825774
26	0xbc8ad596	-0.016947549
27	0xbc99cd12	-0.018774543
28	0xbd5aaba6	-0.053386353
29	0xbdc689df	-0.096942656
30	0xbd723af9	-0.059138272
31	0x3d0cee83	0.03440715
32	0x3d5e35f3	0.05425067
33	0x3c83f483	0.016107803
34	0xbd14ae82	-0.036299236
35	0xbd8983a4	-0.067145616
36	0xbd9034a3	-0.0704129
37	0x3d6ffe5e	0.058592193
38	0x3de44bfe	0.11147307
39	0xbd233f77	-0.039855447
40	0x3da3b97e	0.07994364
41	0x3ce80e3e	0.028327104
42	0x3d4a5c0d	0.049404193
43	0x3d284e8d	0.041090537
44	0x38eb5caf	0.00011222937
45	0xbca7ee59	-0.020499395
46	0xba294b75	-0.00064580824
47	0xbd1f018f	-0.038819846
48	0x3d53850e	0.051640563
49	0x3d374d35	0.044751365
50	0x3cf288b0	0.029606193
51	0x3d61ebf6	0.05515667
52	0xbc3e5266	-0.011616325
53	0xbd0857ab	-0.03328673
54	0xbd46d76b	-0.048545282
55	0xbd863c3f	-0.0655446
56	0xbdc15ff8	-0.09442133
57	0x3c4f0b32	0.0126369465
58	0xbd711b5d	-0.058863986
59	0xbc7e13be	-0.015507637
60	0xbd9a656e	-0.075388774
61	0x3d3d93e6	0.046283625
62	0x3d059491	0.032612387
63	0xbd5a1800	-0.053245544
64	0x3cad184f	0.021129755
65	0x3ce59813	0.028026616
66	0xbda45c11	-0.08025373
67	0xbdcc719c	-0.09982607
68	0x3da0e4e4	0.078561574
69	0xbaa9e426	-0.001296167
70	0xbdb8f885	-0.09031776
71	0xbdb2774c	-0.0871416
72	0xbbd3e93a	-0.0064670118
73	0x3dadaf24	0.08480671
74	0xbd71f5a2	-0.059072144
75	0x3d07704e	0.033066086
76	0xbd6a712b	-0.05723683
77	0xbd9dea69	-0.07710726
78	0x3d3d471d	0.046210397
79	0xbcd40972	-0.02588341
80	0x3d44f2b1	0.04808301
81	0xbd213997	-0.039361563
82	0x3d5210c5	0.051285524
83	0xbcf06e38	-0.029349431
84	0xbc93c64f	-0.018038897
85	0xbd684337	-0.056704726
86	0x3d50e533	0.05099983
87	0xbd8e2c36	-0.06942026
88	0x3df2120e	0.1181985
89	0xbda5931a	-0.08084698
90	0x3d9db818	0.07701129
91	0xbcf3a747	-0.02974285
92	0xbc62390b	-0.013807545
93	0x3b351d9f	0.0027636064
94	0xbdbece19	-0.09316654
95	0xbc9900c5	-0.018677125
96	0x3d37b94f	0.04485446
97	0xbcd59837	-0.026073558
98	0xbc7c8055	-0.015411456
99	0xbc7e977f	-0.015539049
100	0x3e04e972	0.12979677
101	0xbcad59d6	-0.021161001
102	0x3d9cb358	0.076513946
103	0xbcbfb62c	-0.023402296
104	0x3dc22893	0.09480395
105	0x3ca9054c	0.020632409
106	0xbd0bfe73	-0.03417821
107	0xbd3b46f1	-0.045721952
108	0x3d311884	0.04323627
109	0xbb1315df	-0.0022443456
110	0xbd1bc6ee	-0.03803151
111	0x3ab8a2e8	0.0014086636
112	0xbcb82635	-0.022479156
113	0xbc908dfe	-0.017645832
114	0x3d0a0c0c	0.033702895
115	0xbb38c1f7	-0.0028191784
116	0x3d90a9d2	0.07063641
117	0x3d7b0d49	0.061291967
118	0xbcb9d80b	-0.022686025
119	0xbd8c8b29	-0.0686248
120	0x3d124bc2	0.03571678
121	0xbcecbebc	-0.028899543
122	0x3cac8972	0.021061633
123	0xbca32420	-0.019914687
124	0xbda95c8c	-0.08269605
125	0xbbc6460f	-0.006050832
126	0x3d5add3c	0.05343364
127	0x3d3931ca	0.0452135
128	0x3b8c6f4d	0.004285729
129	0xbd063c8c	-0.032772586
130	0xbd977f86	-0.0739737
131	0x3ca7969d	0.02045756
132	0xbb048175	-0.0020218764
133	0x3c442413	0.011971491
134	0xbd876f0b	-0.06612977
135	0xbc147107	-0.009060151
136	0xbb8e7d5c	-0.00434844
137	0x3daad07a	0.08340545
138	0xbda8f145	-0.082491435
139	0x3d160d78	0.03663394
140	0x3d2ebcc0	0.042660475
141	0x3c9d2f0d	0.019187475
142	0x3a5efc87	0.00085062574
143	0xbcad64ba	-0.021166194
144	0xbcf6aca9	-0.030111628
145	0xbcc5b8aa	-0.024135906
146	0xbc86dcf7	-0.016462786
147	0xbd8b7dc8	-0.068111
148	0xba53a426	-0.0008073471
149	0x3c8a773f	0.016902564
150	0xbd751c91	-0.059841696
151	0xbc283302	-0.010266067
152	0x3c83faad	0.016110742
153	0xbcb9a7cb	-0.022663018
154	0xbcc5c86f	-0.024143426
155	0x3d721fab	0.059112232
156	0x3d6c1bfb	0.05764387
157	0xbd3c2d51	-0.045941655
158	0x3c79f611	0.015256421
159	0x3b9d59af	0.004801951
160	0xbcd7499e	-0.02628022
161	0xbdd6429d	-0.10461924
162	0xbb9ae76c	-0.0047272947
163	0x3db81833	0.08988991
164	0x3d9a3f9f	0.07531666
165	0x3d67570a	0.05647949
166	0x3c243964	0.010023449
167	0xbd6eee3b	-0.058332663
168	0x3bbecb50	0.0058225766
169	0x3d441022	0.047866948
170	0x3d6bda7a	0.057581402
171	0x3da6d862	0.081467405
172	0x3a40cc54	0.0007354666
173	0x3ccdecae	0.025137272
174	0xbdc53257	-0.09628742
175	0xbd199ca8	-0.037502915
176	0x3c0bf1a7	0.008541501
177	0x3d2ede5c	0.042692527
178	0x3d36c78a	0.04462389
179	0xbca73f2e	-0.020415869
180	0x3d30c9b5	0.043161113
181	0x3d3579a5	0.044305462
182	0x3cf5dc21	0.030012192
183	0xbd54f31b	-0.051989656
184	0xbc98d7c0	-0.018657565
185	0xbca2bba1	-0.019864859
186	0xbd804ab5	-0.06264249
187	0x3d70cd76	0.058789693
188	0x3d53daa9	0.051722202
189	0x3d7cfdc1	0.061765436
190	0xbd434cc4	-0.04768063
191	0x3c8891c2	0.016671065
192	0x3b3741a0	0.00279627
193	0xbcdedcf2	-0.027204964
194	0x3d8451b1	0.06460894
195	0xbda09245	-0.07840399
196	0xbda47247	-0.08029609
197	0xbda647bd	-0.08119152
198	0xbb1f1ca9	-0.0024278557
199	0x3daa2cf7	0.083093576
200	0x3d9cc3f6	0.07654564
201	0xbbc0bc5f	-0.0058818306
202	0xbd3094e0	-0.04311073
203	0x3c942053	0.01808182
204	0x3d48c2f7	0.049014058
205	0xbdb2bbba	-0.08727212
206	0x3da5a0ab	0.080872856
207	0x3d4b72d5	0.04967006
208	0x39491c21	0.00019179333
209	0x3d7940d2	0.060852833
210	0xbc8d4c53	-0.017248308
211	0x3d403308	0.046923667
212	0xbcc62041	-0.024185302
213	0x3d9cfd34	0.07665482
214	0x3ca5552c	0.020182215
215	0x3da0856a	0.07837947
216	0xbdb00b97	-0.085959606
217	0x3de2d22f	0.110752456
218	0xbd637bd5	-0.055538017
219	0x3c9aa823	0.018879002
220	0x3dd2ffba	0.10302682
221	0x3d8260a5	0.0636609
222	0xbd22a76d	-0.03971045
223	0x3c93861f	0.01800829
224	0x3c59b64c	0.013288092
225	0xbcd19197	-0.025582118
226	0xbb777c5a	-0.0037763328
227	0x3c8638dd	0.016384536
228	0xbc269c30	-0.010169074
229	0xbd63d0ac	-0.055618927
230	0x3d40e25d	0.047090877
231	0xbd612af2	-0.054972596
232	0xbd706d01	-0.058697704
233	0x39161f51	0.00014316781
234	0xbcbee4e1	-0.023302497
235	0x3dce2b52	0.100668564
236	0x3bdd0964	0.006745504
237	0xbdb5af9d	-0.08871386
238	0xbcbc3e6a	-0.02297898
239	0xbd396a39	-0.045267317
240	0x3da295dd	0.079387404
241	0x3d5a9c23	0.05337156
242	0x3cd8dcc3	0.026472455
243	0x3cab54be	0.020914432
244	0x3d5b34fd	0.05351733
245	0x3d937441	0.07199908
246	0xbd2bd754	-0.0419534
247	0xbc9120a7	-0.017715765
248	0x3da2c6a0	0.07948041
249	0x3af793d4	0.0018888661
250	0xbd319f4c	-0.043364808
251	0x3d971c2b	0.073784195
252	0xbc919842	-0.017772797
253	0x3ccff3bc	0.025384776
254	0x3d2b804d	0.041870404
255	0x3d37f912	0.044915266

bias f4 [128]
0	0x3d012f99	0.031539533
1	0x3bc1897d	0.0059062825
2	0x3d23e2ec	0.04001133
3	0xbd76ea78	-0.0602822
4	0x3c02fc8d	0.007994783
5	0x3d2e4314	0.04254444
6	0xbc7ec3f6	-0.01554965
7	0xbcdae5af	-0.02672085
8	0x3d7140bd	0.05889963
9	0x3d382e13	0.044965815
10	0xbd83541e	-0.064125285
11	0x3d69fe6e	0.05712741
12	0x3d506a0e	0.05088239
13	0xbd553faa	-0.052062668
14	0xbcd9872f	-0.026553718
15	0xbd71a2d2	-0.05899317
16	0xbcc27391	-0.023736747
17	0x3d4e3475	0.050342996
18	0x3cf053ab	0.029336771
19	0xbb1880de	-0.002327017
20	0x3d03672f	0.032080825
21	0xbd55b7f4	-0.052177384
22	0xbcb19145	-0.021675715
23	0x3d63689f	0.055519696
24	0xba751a1f	-0.00093499006
25	0x3c111598	0.008855246
26	0xbd4eeba6	-0.0505177
27	0xbaae7da7	-0.0013312594
28	0x3c662725	0.014047419
29	0x3cc3183c	0.023815267
30	0xbd419cad	-0.04726856
31	0x3b545bc1	0.0032403322
32	0xbd6d14f9	-0.05788133
33	0xbae9f618	-0.0017849831
34	0xbd092903	-0.033486377
35	0xbc920883	-0.017826324
36	0x3d164aa0	0.03669226
37	0xbd14f2ec	-0.03636448
38	0xbc97a406	-0.01851083
39	0xbd2cc5a4	-0.042180672
40	0x3d45cd00	0.048291206
41	0x3cfdc144	0.030975945
42	0x3d15c79c	0.036567315
43	0x3d2493f2	0.040180154
44	0xb8a683f6	-7.9400765e-05
45	0x3d32ad67	0.0436224
46	0x3d7d641d	0.061863054
47	0x3d0be862	0.034157164
48	0x3a3e1085	0.00072503864
49	0x3c8f6cb1	0.017507883
50	0x3bda8ed1	0.006669857
51	0xbd08f762	-0.033439048
52	0x3c26a5ab	0.010171334
53	0xbd2382a9	-0.03991953
54	0x3d5b6779	0.053565476
55	0x389d3ece	7.498042e-05
56	0xbccaea54	-0.02476994
57	0x3c341d83	0.010993364
58	0x3caa42bc	0.020783775
59	0xbb978081	-0.004623473
60	0xbcda5cd8	-0.0266556
61	0x3d686ee7	0.05674639
62	0x3d6201e1	0.055177573
63	0xbce82b01	-0.028340818
64	0x3c3c653e	0.011498747
65	0x3cd5a583	0.026079899
66	0xbd6e285a	-0.05814395
67	0x3cdb41d0	0.02676478
68	0x3d699d42	0.05703474
69	0x3d260a9e	0.04053747
70	0xbbf941e8	-0.0076067336
71	0x3c1008b4	0.0087911375
72	0x3d5672b8	0.052355498
73	0xbcf5d6ef	-0.030009715
74	0xbd02e801	-0.031959537
75	0xbd23a35a	-0.039950706
76	0x3c8f691a	0.017506171
77	0x3caaf5a6	0.020869087
78	0xbbb7a9e2	-0.0056049684
79	0xbd100a73	-0.035166215
80	0xba007d1b	-0.00049014547
81	0xbd61ee12	-0.055158682
82	0x3c0ab6b2	0.0084664095
83	0xbcad5781	-0.02115989
84	0xbd71f848	-0.05907467
85	0x3a52b8a9	0.0008038381
86	0xbd5712f9	-0.052508328
87	0x3cb51a7b	0.022107353
88	0xbd73d520	-0.059529424
89	0xbcdfb954	-0.027310051
90	0x3d4365a7	0.047704365
91	0xbd2d0aef	-0.042246755
92	0xbd3b2611	-0.0456906
93	0x3ce19bc9	0.027540104
94	0xbcd1082f	-0.025516598
95	0xbbaf52c3	-0.005350442
96	0xbcdfd3d5	-0.02732269
97	0x3d29f674	0.0414948
98	0x3c950c86	0.018194448
99	0x3d7d600b	0.06185917
100	0x3d34f96d	0.044183183
101	0x3ce21875	0.027599553
102	0xbc431a51	-0.01190813
103	0x3b566781	0.0032715502
104	0x3d0ae2f0	0.03390783
105	0xbd3b4b5c	-0.045726165
106	0xbd4aec8b	-0.04954199
107	0x3d426977	0.04746386
108	0xbd0efd54	-0.03490956
109	0xbbe463d7	-0.0069699096
110	0xbc1c74cd	-0.009549332
111	0xbd6d6535	-0.057957847
112	0xbca4822e	-0.020081606
113	0x3cd9119f	0.02649766
114	0x3d6ea5d5	0.05826362
115	0xbcc41b04	-0.023938663
116	0x3d0ea2f0	0.034823358
117	0xbd4bdf24	-0.04977335
118	0xbd012be8	-0.031536013
119	0x3cbfa42c	0.023393713
120	0x3d5ba369	0.053622637
121	0xbd07785e	-0.033073775
122	0x3c7deb1c	0.015497949
123	0x3cdee777	0.02720998
124	0x3d32c816	0.043647848
125	0xbcd6d9ec	-0.02622696
126	0x3c855e0e	0.0162802
127	0x3d18385a	0.037163116

weight f4 [10, 128]
0	0xbe018e92	-0.12652043
1	0x3ea3fe5b	0.32029995
2	0x3d91e928	0.07124549
3	0x3e8f2b0e	0.27962536
4	0x3d924f20	0.07143998
5	0x3e37a78b	0.17935006
6	0x3e1b77ef	0.1518247
7	0xbd4db49e	-0.050221078
8	0x3e1815bd	0.14852042
9	0x3e4adabc	0.19810003
10	0xbe9a27da	-0.3010853
11	0xbd045f94	-0.032317713
12	0x3e5d40e8	0.21606791
13	0xbe33d189	-0.175604
14	0xbd85ff08	-0.06542784
15	0xbea40020	-0.32031345
16	0x3dee0a41	0.116230495
17	0xbe06ec02	-0.13175967
18	0xbe60377b	-0.21896164
19	0x3e955c8f	0.2917218
20	0xbd9a0722	-0.07520892
21	0xbe2b0bda	-0.1670374
22	0xbe4368f7	-0.1908301
23	0x3de136c2	0.10996772
24	0xbb6e5552	-0.0036366773
25	0xbcf48fa1	-0.029853644
26	0x3d673909	0.056450877
27	0x3e844374	0.25832713
28	0x3cb34ba9	0.021886664
29	0xbe2244fb	-0.15846626
30	0xbee2db5a	-0.44307977
31	0xbe5aef1a	-0.21380273
32	0x3e1d4d21	0.15361454
33	0xbe931d98	-0.28733516
34	0xbe3b3420	-0.18281603
35	0xbddd771f	-0.10813736
36	0x3d836817	0.06416338
37	0x3ea313a6	0.31850928
38	0xbe16b4d9	-0.14717425
39	0xbe46bb57	-0.19407402
40	0xbe5238ac	-0.20529431
41	0x3e382df2	0.17986277
42	0x3ea320bb	0.3186091
43	0x3eda0cb1	0.42587808
44	0xbe4c557a	-0.19954482
45	0xbe88db5f	-0.26729867
46	0xbec76524	-0.38944352
47	0x3e7693e7	0.24079858
48	0x3e418354	0.18897754
49	0x3df48a76	0.11940472
50	0x3e658fc8	0.2241813
51	0x3dba814a	0.09106691
52	0xbd8f10f3	-0.06985655
53	0x3e89e5f1	0.26933244
54	0x3d329153	0.043595623
55	0xbe228644	-0.15871531
56	0xbe8a17dd	-0.2697133
57	0xbdcc214e	-0.0996729
58	0x3eae7988	0.34077096
59	0xbdacf9f6	-0.08446114
60	0x3e7f916f	0.24957822
61	0xbe31238d	-0.17298718
62	0x3eb16cb0	0.34653234
63	0xbd480e58	-0.048841804
64	0xbe7a150f	-0.24422096
65	0x3d6571da	0.05601678
66	0x3dc1599d	0.094409205
67	0x3eb03a9d	0.34419718
68	0x3cdcb9c9	0.026944058
69	0xbdd56552	-0.10419716
70	0x3ea731b9	0.32655123
71	0xbe807a5f	-0.25093362
72	0x3dabf1a2	0.08395697
73	0x3de8da7d	0.11369798
74	0xbe187f4a	-0.14892307
75	0xbec0d897	-0.37665245
76	0x3de8c2c5	0.11365274
77	0x3df12ca5	0.117760934
78	0x3eceac4c	0.40365827
79	0xbe797cfa	-0.24364081
80	0x3dbdc15a	0.092653945
81	0xbcfe869f	-0.031070052
82	0x3e2d59c6	0.16928777
83	0x3ef065de	0.46952718
84	0x3e86f5b9	0.26359347
85	0xbe808dbc	-0.25108135
86	0xbe639686	-0.22225389
87	0xbc62d62d	-0.013845009
88	0xbe557abd	-0.20847602
89	0x3ec1a772	0.37823063
90	0xbec4fdbc	-0.38474834
91	0x3dc7e513	0.09760489
92	0x3de0d0b4	0.10977307
93	0xbe9f6230	-0.311296
94	0x3c237d53	0.00997861
95	0x3d5651eb	0.052324217
96	0x3eb42c08	0.35189843
97	0x3e6437b0	0.22286868
98	0xbe2d5e8b	-0.16930597
99	0xbd3aaf36	-0.04557725
100	0x3e42e4fd	0.19032665
101	0xbded8dd0	-0.11599314
102	0xbe2babf2	-0.1676481
103	0x3e1edc8f	0.15513824
104	0xbe630207	-0.22168742
105	0x3dc3a217	0.095524006
106	0xbe44bb3b	-0.19212048
107	0x3e94f525	0.2909328
108	0x3c3cdf05	0.011527781
109	0x3c946af5	0.018117407
110	0x3daf7e27	0.085689835
111	0x3e1913a0	0.14948893
112	0x3e2c4bd5	0.16825803
113	0x3deb5ddc	0.11492512
114	0xbd0d675f	-0.03452241
115	0xbcac8080	-0.021057367
116	0x3e0b6c0b	0.13615434
117	0xbe8c54e0	-0.27408504
118	0xbe82b8c9	-0.25531605
119	0x3da153dc	0.07877323
120	0x3e1dd44a	0.15413013
121	0x3e747334	0.23872072
122	0xbe25e56e	-0.16200802
123	0xbbfa90b6	-0.0076466454
124	0xbd6aca2b	-0.05732171
125	0xbdc7f952	-0.09764351
126	0xbb4b64e2	-0.0031035473
127	0xbd8e3169	-0.06943018
128	0x3e0cc490	0.13746858
129	0xbde4e88a	-0.11177166
130	0x3e678d3f	0.22612475
131	0xbdac7291	-0.08420289
132	0xbe9d6d2e	-0.3074736
133	0xbdc08e9f	-0.09402203
134	0xbe8a25d5	-0.2698199
135	0xbe227188	-0.15863621
136	0xbebb5a6d	-0.36592427
137	0x3ee64a0a	0.44978362
138	0x3e6b6e93	0.229914
139	0x3e95dc21	0.29269508
140	0xbea6a35d	-0.3254651
141	0x3e061f32	0.13097838
142	0x3c8924ea	0.016741235
143	0x3e26aa49	0.16275896
144	0x3e99895d	0.29987612
145	0x3eae1e84	0.34007657
146	0x3e1ff013	0.15618925
147	0xbe92e4cd	-0.28690186
148	0x3ea510f4	0.32239497
149	0xbd9b51ee	-0.07583986
150	0x3ea09644	0.31364644
151	0xbc254f16	-0.010089656
152	0xbe2e191b	-0.17001764
153	0xbc961767	-0.018321706
154	0x3e07dec5	0.13268574
155	0x3e5b54bc	0.21419042
156	0xbe5e4dd5	-0.21709378
157	0xbdbe3384	-0.092871696
158	0x3de3e610	0.11127865
159	0xbb593b49	-0.003314691
160	0x3e008033	0.12548904
161	0x3e3e4306	0.18580255
162	0x3eac78cb	0.33685908
163	0x3e1ff8b5	0.15622218
164	0x3dd3f91f	0.103502505
165	0xbe8fe456	-0.28103894
166	0x3dd4317b	0.10361
167	0xbdad9581	-0.08475781
168	0x3d6d2790	0.057899058
169	0xbc5e071b	-0.013551499
170	0xbebf2acc	-0.3733734
171	0xbe4883ad	-0.1958148
172	0x3e4c9409	0.19978346
173	0x3e7040c7	0.2346221
174	0x3cc6c102	0.024261955
175	0xbe808b0d	-0.25106087
176	0xbe19ac1d	-0.15007062
177	0x3e895d04	0.26828778
178	0xbd8021b7	-0.062564306
179	0xbe06fd4e	-0.13182566
180	0xbe0dcf80	-0.13848686
181	0xbd1f3bc7	-0.038875367
182	0x3dd0bbc1	0.10192061
183	0xbcace7fd	-0.021106714
184	0x3e11aed6	0.14226851
185	0x3e829e5e	0.2551145
186	0xbea2041b	-0.31643757
187	0xbdbfe844	-0.09370473
188	0xbe52b788	-0.20577824
189	0xbe434ca3	-0.19072203
190	0xbe41a816	-0.18911776
191	0x3da3a150	0.07989752
192	0x3e26fbb9	0.16306962
193	0xbe87d81d	-0.2653207
194	0x3e805208	0.25062585
195	0xbdfaaf2b	-0.12240442
196	0xbe12ca10	-0.14334893
197	0xbdd45671	-0.1036805
198	0xbea03829	-0.31292847
199	0x3e627ed1	0.22118689
200	0xbea5a590	-0.32352877
201	0x3e7c6269	0.24646915
202	0xbe0944fa	-0.13405219
203	0x3ecdfa1a	0.40229875
204	0xbe4c55c1	-0.19954588
205	0xbdd29021	-0.10281397
206	0xbe57807a	-0.21045104
207	0x3e025595	0.1272796
208	0x3e5c6a68	0.21524966
209	0xbe784b3d	-0.24247451
210	0xbdb6514f	-0.08902227
211	0xbe9fa32a	-0.31179172
212	0xbecd7597	-0.40128776
213	0x3e681157	0.22662865
214	0x3cfb8ab6	0.030705791
215	0x3d5851f0	0.052812517
216	0x3ec2d4b1	0.38052896
217	0xbe800e59	-0.25010946
218	0xbbdd746a	-0.0067582624
219	0xbc837a47	-0.016049517
220	0x3db71f29	0.0894149
221	0x3de7d10a	0.11319168
222	0xbd0a9877	-0.033836808
223	0xbe86a4c6	-0.26297587
224	0x3e367946	0.178197
225	0x3dd61853	0.10453858
226	0x3e9e7b90	0.30953646
227	0xbd3d2458	-0.04617724
228	0xbd8c1429	-0.06839783
229	0x3ce429c0	0.02785194
230	0x3eeaed8d	0.45884362
231	0xbdc89f88	-0.09796053
232	0x3e11a05c	0.14221328
233	0xbe39d57d	-0.18147846
234	0xbe0f92c2	-0.14020827
235	0xbe89b2a1	-0.26894096
236	0xbe81681c	-0.25274742
237	0xbd977b6e	-0.07396589
238	0xbd1d164a	-0.038351335
239	0xbe38dd65	-0.18053205
240	0xbd8009bf	-0.06251859
241	0xbe70ce3a	-0.23516169
242	0x3e2a6518	0.16640127
243	0x3e473feb	0.19457977
244	0xbe61c9d3	-0.22049646
245	0x3ea9583e	0.33075136
246	0x3e28872a	0.16457811
247	0x3e27da5d	0.16391893
248	0x3e31e9a2	0.1737428
249	0xbe719f62	-0.23595956
250	0x3d00e3c8	0.03146723
251	0x3e1006a4	0.14065033
252	0x3c49f19d	0.0123256715
253	0x3e7437a4	0.2384935
254	0xbd6333eb	-0.055469435
255	0x3d771701	0.060324673

bias f4 [10]
0	0xbdac48c6	-0.08412318
1	0x3c9039b0	0.017605633
2	0xbd71e038	-0.059051722
3	0x3dada333	0.084783934
4	0x3d91937a	0.07108207
5	0xbc8ea276	-0.017411452
6	0x3d6b68cb	0.057472985
7	0x3d5469fd	0.05185889
8	0x3d71c9dd	0.059030402
9	0xbd8fbf1b	-0.07018872
